experiments/pre-train-vit-with-40-epochs/model_25.pt (torch, 544230 bytes, 57 tensors)

embedding.cls_token f4 [1, 1, 48]
00000000: 275d 7e3c 9276 15b9 5bad 503c 54eb 1cbc
00000010: 83d8 0fbd 4867 d2bc 114e bc3c 2892 2a3d
00000020: 686d 29bd 5ea8 a5bb b273 77bb 5ea1 1f3e
00000030: b6e0 cfbb f7af 263c be15 443c e10a df3b
00000040: e18d 2c3d 3cde 28bd b00a f93b 2d25 ae3c
00000050: 0c14 0e3c b69e 343c 147e 2fbc 6921 69bd
00000060: 0d8c cdbc a6e2 1e3e 69c2 99bc 3e1f 0ebc
00000070: 0a2c 71bc 3ec7 04be 437f 803c fb5d 8abc
00000080: 559d 3f3c ffb5 c3bc 60e5 7cbc 7fbc 803c
00000090: 3c7a ea3c e0eb 78bd 1eb3 25ba 318a f93c
000000a0: 2199 fe3c 1fcc e5bc 36cc 723c 199f 39bc
000000b0: 4149 0dbc 7eb3 92bc 10b5 d4bd b31d c83d
0.015525139 -0.00014253918 0.012736644 -0.009577591 -0.03511859 -0.025684014 0.022986444 0.04164329
-0.041364104 -0.0050554713 -0.0037758169 0.155889 -0.0063439263 0.010173789 0.011968074 0.006806717
0.042127494 -0.041227564 0.007600151 0.021257961 0.008671772 0.011024168 -0.010711212 -0.056916628
-0.025091195 0.15516147 -0.01876946 -0.008674441 -0.014719972 -0.1296663 0.015685683 -0.016890517
0.011695226 -0.023890493 -0.015435547 0.015714882 0.028622739 -0.060771823 -0.0006320941 0.030461403
0.031078877 -0.028051434 0.0148191955 -0.011329436 -0.008623422 -0.017907854 -0.103860974 0.0977129

embedding.position_embeddings f4 [1, 37, 48]
00000000: 18e6 843b b4c8 8c3c af73 c53c 2f90 20bc
00000010: d273 11bd b3ad 0ebd 7c28 583c 93fe 133d
00000020: a560 8fbc ebe3 ddbb aba0 c1ba 18d8 2c3e
00000030: 73c2 09bc 7020 8cbc be52 e63c a92a 53bc
00000040: 995f 163d 34bd 03bd 75fa 823c e489 763c
00000050: 404c 5f3a 38a2 b1bb a10e ed3b 7607 95bd
00000060: c4b2 23bd 3126 153e e088 34bc 095e 9fbb
00000070: 3ae9 a7bc d775 c7bd 09ef db3c 1d1f 813b
00000080: 1619 97ba f032 b9bc 1056 9bbc 0be6 ce3c
00000090: 7821 113d 8474 68bd 4ea6 903c bcf8 9b3b
000000a0: 27e4 8f3b f3fa b6bc cd3f a93c 24aa 26bc
000000b0: dcc0 0cbd 7490 6abc 6d77 98bd d5b0 dd3d
000000c0: f473 99bc ed57 6a3e 8bc9 9a3e 051c 723d
000000d0: 0704 503e 5f7f 48be a676 453e dcc4 5bbe
000000e0: 626e afbd 6577 3cbe 1a14 81be 6eab 43be
000000f0: 2765 8b3d ed84 fa3c 765f 31be 55df aebe
00000100: 2bc0 cb3d 26bc b83e 77f2 c7bd d505 65be
00000110: 766e b83d 077a 9abe e996 9cbe c232 85be
00000120: 8d84 bf3e ed9d a8bd 1eaf 9bbd ab80 06bc
00000130: b94a bdbd 5749 0a3e f4c4 6dbe da48 2cbe
00000140: 6256 f0be c342 6ebe b86a da3d 36d4 b9be
00000150: 007a 143e 7096 1d3e d05d 003e 5bf0 e03e
00000160: 7caa 4fbe 71e6 19be 8b4f 8b3d 7b7b 803e
00000170: 27d7 5c3e 1d0f b13e 9031 cb3e 8621 393e
00000180: e793 b0bd d753 363e c8b8 c23e 7058 e03d
00000190: 8112 963e 8452 70be ae4a 543e 0097 6ebe
000001a0: 8b2a efbd 2fd4 05be e815 8fbe c4f7 69be
000001b0: 07ba 9bbc 62c4 be3d e376 22be 93b0 c0be
000001c0: bfcb 19bd aa49 a23e 10ca ddbd d041 6fbe
000001d0: 2367 fb3c c69e adbe a2d1 8dbe 5f9d 8ebe
000001e0: 9ead c13e 8f0e c0bd c5b9 f2bd 9239 75bc
000001f0: 990a 0fbd 5fd5 fe3d 1e07 31be a876 1cbe
00000200: d96c f4be e9f2 73be 657b 633d 919b b4be
00000210: 6b14 803e 8602 0f3e cadd 083e 5bd6 d53e
00000220: 33d0 24be 799e 2fbe e995 5c3d 3d82 923e
00000230: e075 6a3e b7cb c33e d06f bd3e b33e 613e
00000240: d0bf c4bd cb1f 883e a0d5 b93e 1d71 d43d
00000250: 3d97 ba3e b0f5 92be 2cfe 333e 78d8 78be
00000260: 98ad 9cbd f4d2 29be d9da e0be 4b02 01be
00000270: 8ad7 483b c6ff e53d c957 2fbe 9c87 edbe
00000280: d739 86bc fbba 073f 1b07 7cbe 5738 a7be
00000290: b346 fb3d a597 f8be a4b5 96be 781a 9bbe
000002a0: d2e4 033f 0a4c e4bd 668f f5bd 6c4d b0bd
000002b0: 74e0 dbbc e5e8 d23d 1ef7 48be e87f 8bbe
000002c0: 6b2f 10bf 9764 9dbe acb4 b93d 1250 cbbe
000002d0: f4b0 aa3e 107a 723e a9bf 0e3e 4450 013f
000002e0: d01d 74be 32f8 8ebe e6f2 e53d 72e4 973e
000002f0: 93b3 3f3e ae86 c23e fbc9 c93e c012 833e
00000300: 1025 4abd df28 7e3e ba80 dc3e f8f1 5d3e
00000310: 35a7 cb3e ebf0 9cbe 0515 383e 7fd6 b3be
00000320: 154a 92bb c93e 6abe 0ae5 cfbe df4c 5abe
00000330: 7db5 aabc f33a 063d 4ccc 8cbe 297e 04bf
00000340: d042 5b3d 31d5 0b3f 257b 6bbe e58d b0be
00000350: 9a8d db3d f8fd dbbe 77ce 8bbe bca9 7fbe
00000360: 51ab 043f fc81 7bbe a662 4ebe 52e0 00be
00000370: ab55 a4bc 195a 343e bc9e 50be c454 96be
00000380: ee63 2abf 579e a9be 9e6f 7b3d b6fa dabe
00000390: f296 a13e 28a7 983e a3a9 b53d 8892 103f
000003a0: d87f 16be d1b4 8dbe 0fda 303e 4ab1 833e
000003b0: c005 3f3e 3ea3 f73e 94a3 d13e 3de9 3b3e
000003c0: 0421 aebd a593 913e 54db 063f 8c28 663e
000003d0: c81f dd3e 8d51 cfbe 1fbd 393e 7941 f6be
000003e0: b8f1 163b 82c4 2dbe 5a95 d1be 3eea f7bd
000003f0: 8b9e ccba 8cd5 a43b 9613 8abe 4d7e febe
0.0040557496 0.017185546 0.024103014 -0.009800001 -0.035510845 -0.03483362 0.013193246 0.036131453
-0.017502138 -0.0067715547 -0.0014772614 0.16879308 -0.008408177 -0.017105311 0.028115626 -0.012888589
0.036712263 -0.03216286 0.015988568 0.015047524 0.0008518137 -0.0054209493 0.00723441 -0.07276814
-0.039965406 0.1456535 -0.011018962 -0.004863505 -0.020496953 -0.09739273 0.02684738 0.0039404766
-0.0011527862 -0.022607297 -0.018961936 0.025256177 0.03543231 -0.056751743 0.017657425 0.004759876
0.0043912116 -0.022336459 0.020660305 -0.010172401 -0.034363613 -0.014316667 -0.07444654 0.10824744
-0.018732049 0.22885104 0.3023189 0.059108753 0.20314036 -0.19579838 0.19283542 -0.21461815
-0.08565976 -0.1840492 -0.2521065 -0.19108364 0.06806403 0.030580962 -0.17321572 -0.34154764
0.099487625 0.36081046 -0.097630434 -0.22365506 0.09005444 -0.30171224 -0.30583885 -0.26015288
0.37405816 -0.08233247 -0.0760176 -0.008209388 -0.09242768 0.1350454 -0.23219663 -0.16824666
-0.46940905 -0.23267655 0.10664886 -0.36294717 0.14499664 0.15389419 0.12535787 0.43933377
-0.20279878 -0.15029313 0.06802281 0.25094208 0.21566449 0.34581843 0.3968625 0.18079194
-0.0862196 0.1780542 0.38031602 0.10954368 0.29310992 -0.23468977 0.20731613 -0.2329979
-0.11678036 -0.13069223 -0.279464 -0.22848421 -0.019009603 0.09314801 -0.15865664 -0.37634715
-0.037547823 0.31696826 -0.10829556 -0.23364949 0.030688828 -0.33910197 -0.27699 -0.2785444
0.37827772 -0.09377777 -0.11851839 -0.014967339 -0.034922216 0.12443041 -0.17287871 -0.15279639
-0.47739294 -0.23823132 0.0555376 -0.35274938 0.25015578 0.13965806 0.13365856 0.41765103
-0.16095047 -0.17150296 0.053853903 0.2861499 0.22896528 0.3824136 0.3699937 0.21996574
-0.09606898 0.26586756 0.36295795 0.10373137 0.3644351 -0.2870307 0.17577428 -0.24301326
-0.07650298 -0.16584378 -0.43916968 -0.12598531 0.003064605 0.112304255 -0.17123331 -0.46392524
-0.016385002 0.53019685 -0.24612086 -0.3266017 0.12269344 -0.48553196 -0.29435456 -0.30293632
0.5152103 -0.11147316 -0.11990242 -0.08608517 -0.026840426 0.10298327 -0.19625518 -0.27246022
-0.56322354 -0.30740806 0.090676636 -0.39709526 0.3333813 0.23679376 0.139403 0.505131
-0.23839498 -0.27923733 0.1122797 0.29666477 0.18720846 0.37993377 0.3941191 0.25600243
-0.04935175 0.24820279 0.4306696 0.21674335 0.39776006 -0.30652556 0.17976768 -0.35124585
-0.0044643977 -0.22875513 -0.4060443 -0.21318386 -0.020838493 0.032771062 -0.27499616 -0.51755005
0.053530514 0.5462218 -0.22996195 -0.34483257 0.10720368 -0.429672 -0.27305958 -0.24967092
0.5182391 -0.24561304 -0.20154819 -0.12585571 -0.02006038 0.17612495 -0.20373052 -0.29361546
-0.6655873 -0.33128616 0.061385743 -0.42769402 0.31560475 0.2981503 0.08870246 0.5647359
-0.14697206 -0.27677014 0.17270683 0.25721198 0.18654537 0.4836673 0.40945113 0.18350692
-0.08502391 0.28432956 0.5267842 0.22476405 0.4318831 -0.40491906 0.1813855 -0.48096827
0.002303226 -0.16969493 -0.4093426 -0.12105225 -0.0015611214 0.0050303396 -0.26968068 -0.49705735

embedding.patch_embeddings.projection.weight f4 [48, 1, 15, 15]
00000000: 6c61 ca3c 88d9 b7bd 13e3 e0bd 2242 2bbe
00000010: 24b0 0bbe aad1 fbbc 68d3 0b3e c477 ca3e
00000020: 2615 e53e 6af0 cc3e 653f 433e e763 053d
00000030: a9d7 c3bd c94a 01be 0a13 2bbe 9946 c0bd
00000040: d70d 2ebe 3712 67be 4f2b 8fbe efd6 6bbe
00000050: 3375 e4bd bc6c 563d 512d b43e 4a9a 023f
00000060: 0cee e33e 82c4 6d3e 9579 8f3d 2c44 42bd
00000070: 7b18 62be a3b5 59be 2ea9 0fbe 888e 93be
00000080: af2f a7be 2a48 c8be ac87 77be 3ea3 0cbe
00000090: 996e ca3d f568 9b3e 97fa d43e aea9 9d3e
000000a0: 999e 303e 365b 363d f90a 17be 2076 a1be
000000b0: 19b0 a4be 6c3f 38be 287a 83be a357 72be
000000c0: 0ca3 56be db56 1fbe ed6c 7bbb 6cc6 4d3e
000000d0: 4a8e 913e 888a 8e3e 092c 7e3e 7fdb 32bd
000000e0: c3ca 73bd 383c 35be 7c42 9cbe b412 abbe
000000f0: 0d64 09be 72dc e0bd ade7 83bd bff0 513d
00000100: 784b 013e fe3f 213e 717b 6c3e 8682 693e
00000110: dcdf b33d 4db9 22bd 1610 0abe 76a1 32be
00000120: 1c19 2cbe caa6 91be 7c40 8ebe ab0a 8fbd
00000130: bbd7 f93b da3d 413e 74ca 863e 99e0 b53e
00000140: d89b c43e a183 9a3e 2674 0a3e 6d44 c8bc
00000150: f8ec 63be 5a7e 88be 3436 89be 1bd0 90be
00000160: ca88 8ebe 7cc1 84be c373 58bd 04f2 6f3d
00000170: 13b7 7a3e 2fd5 b03e 667e ee3e af0c e03e
00000180: 7397 a43e adf4 f03d edc8 15be 977d 9abe
00000190: e650 cabe 227e 8fbe 3fc3 85be c4e8 7ebe
000001a0: 5a88 6abe 2e4f 5abd 793e d0bb ab21 353e
000001b0: 89a3 983e 715b c73e 3e92 f33e 3bdf a23e
000001c0: 3f2e ea3d 5fe8 b7bd 24de adbe 2249 bbbe
000001d0: 06d9 8bbe 2c75 40be cf1e 0abe aff1 19be
000001e0: 2fc0 05bd 80eb a2bc 5fe1 f73d fcfd 6c3e
000001f0: 049a 603e 6309 993e 69f0 833e 8558 af3d
00000200: e7f3 01be efef 98be 0e63 c2be 3cb9 5cbe
00000210: d06b f3bd 6244 ccbd 6698 dfbd 70e1 613d
00000220: 327e 19bd af92 213d bd85 3b3d 0b42 e33d
00000230: e800 d13d 466d 7f3d 0c40 adbc 920a 09be
00000240: c556 22be 10f6 69be 4818 fbbd 7c4c f0bb
00000250: 2d89 d8bd 6dec 30be 8ee4 523d c176 d6bd
00000260: fda5 d6bd 42ca a9bd ba71 35bd c622 95bd
00000270: 435b d4bd a134 1fbe beb8 febd 5e71 f7bd
00000280: aadd c4bd f973 383c e35d 083e 9f3a 563d
00000290: 4f94 f9bc 32bb a93d 012d 8abd 5023 26be
000002a0: ad1d 60be ecc5 27be 5c30 2dbe 86e6 10be
000002b0: 6291 3fbe 133b 18be b05c babd 8e9f adbc
000002c0: 6cd2 253e e7c6 733e 1971 693e 978e 0e3e
000002d0: bd54 f03d ffc9 efbc 88e2 39be 0d54 37be
000002e0: f659 76be 711f 1ebe 4a48 07be 2ddc e1bd
000002f0: 0a17 2dbd d9d0 1b3d 18f7 c73d 8778 803e
00000300: bf8f c73e d66e 963e e57d 663e dd46 e63d
00000310: afe5 5abc 97bd 9ebd a89e 11be f868 98bd
00000320: 5c14 25bd 13fb 67bd a68d 8fbd 1b95 35bc
00000330: 1d5a b43c 7bd9 213e b5c5 833e 5fd8 ad3e
00000340: 25d1 cb3e 53a0 883e 803f 173e 954f c83c
00000350: cbe4 99bd f26d b0bc 180f 4639 aa98 8fbc
00000360: 8976 883c dfa0 103d faa5 3f3b 725f aa3c
00000370: ae89 9d3d 4e06 a53d a3ea 643e 460b 903e
00000380: 28f4 453e a1ec c53e 4765 6b3e e40f 723d
00000390: 3e64 42bd 9944 d63b 4074 cbbd d6ce 7abe
000003a0: ed79 52be e302 2abe d181 44be 7fda 2ebe
000003b0: 6787 66be a608 95be 441c 99be 8d6a b4be
000003c0: 3d14 a33e c2a0 6e3e 908d 8d3d b5a0 acbd
000003d0: 2b29 f5bd eb69 38be 76e6 7abe e06f 67be
000003e0: c12b 4dbe d72d 15be debc 29be e383 6bbe
000003f0: a527 76be b966 8dbe 2280 92be 36b5 713e
0.024704657 -0.08977038 -0.10980811 -0.16724446 -0.13641411 -0.030739624 0.13654864 0.395445
0.44742697 0.4002717 0.19067152 0.032565977 -0.09562618 -0.12626185 -0.16706482 -0.093884654
-0.16997467 -0.22565542 -0.2796273 -0.2303121 -0.111551665 0.05234979 0.35190824 0.51016676
0.44517553 0.23219493 0.07005612 -0.047428295 -0.22079651 -0.21260695 -0.1402938 -0.2881968
-0.32653567 -0.39117557 -0.24172848 -0.13734147 0.09884376 0.30353513 0.41597435 0.30793518
0.17248 0.04452058 -0.1475028 -0.31535435 -0.32165602 -0.17992944 -0.25679135 -0.23666243
-0.20960635 -0.15560476 -0.0038364485 0.20095223 0.2842887 0.27840066 0.24821486 -0.04366636
-0.05951954 -0.17698753 -0.30519474 -0.33412707 -0.13417073 -0.109795466 -0.06440673 0.051254984
0.12626445 0.15747067 0.23093964 0.22803697 0.08782932 -0.039727498 -0.13482699 -0.17444405
-0.16806453 -0.28447562 -0.27783573 -0.06984457 0.007624594 0.18871251 0.26326334 0.35522917
0.3840015 0.3017855 0.1352087 -0.02444669 -0.22258365 -0.266589 -0.26799166 -0.28283772
-0.27838737 -0.25928867 -0.052844774 0.058580413 0.244839 0.34537646 0.4658081 0.43759677
0.32146797 0.11765418 -0.14627428 -0.30173942 -0.39514846 -0.2802592 -0.26125523 -0.2489348
-0.22903576 -0.053298168 -0.0063551036 0.17688625 0.29812267 0.38936952 0.4757251 0.31810936
0.11434602 -0.08979868 -0.33958542 -0.36579233 -0.27314013 -0.18794698 -0.13488315 -0.15033601
-0.032653984 -0.019887686 0.12103533 0.23143762 0.21933752 0.29889974 0.25769356 0.08561806
-0.12690698 -0.29870555 -0.37966198 -0.21555036 -0.11885798 -0.099739805 -0.109177396 0.055146635
-0.037473865 0.03944653 0.04578184 0.11096581 0.10205251 0.06236007 -0.021148704 -0.13382939
-0.15853412 -0.22847772 -0.12260491 -0.0073333364 -0.10573039 -0.1727769 0.051487498 -0.10471869
-0.104808785 -0.08290531 -0.04429791 -0.07282023 -0.10368969 -0.1554742 -0.124375805 -0.1208217
-0.096125916 0.011258119 0.13317065 0.052302 -0.030466227 0.08287658 -0.06746865 -0.16224408
-0.2188632 -0.16384095 -0.16912979 -0.14150438 -0.18707803 -0.14866285 -0.0909971 -0.021194246
0.16193551 0.23806344 0.2279705 0.13921581 0.117349125 -0.029271124 -0.18152821 -0.17903157
-0.24057755 -0.15441681 -0.1321117 -0.11028323 -0.0422583 0.03804097 0.09763926 0.25091955
0.38976857 0.29381436 0.22508962 0.11243985 -0.013360425 -0.07751005 -0.14220679 -0.07441896
-0.04030262 -0.056635927 -0.07009439 -0.011082913 0.022015626 0.15805618 0.25736776 0.3395414
0.39808002 0.26684818 0.14770317 0.02445201 -0.07514342 -0.021536801 0.00018888374 -0.01752885
0.016658084 0.03530967 0.0029243217 0.020797465 0.07692276 0.08057843 0.22355132 0.281336
0.1933142 0.38657096 0.22987853 0.059097186 -0.04745888 0.006538939 -0.09934282 -0.24492964
-0.20554323 -0.16602664 -0.19190146 -0.17075537 -0.2251259 -0.2910816 -0.29904377 -0.35237542
0.31851378 0.23303512 0.069117665 -0.0842909 -0.11970743 -0.18009154 -0.24501976 -0.2260127
-0.20036222 -0.14568268 -0.16575953 -0.2299953 -0.2403856 -0.27617434 -0.28613383 0.23604283

embedding.patch_embeddings.projection.bias f4 [48]
00000000: 46f2 b6be 111d 8e3f 126d 8a3f 19fe b43e
00000010: 4b4f 933f 0659 90bf beb7 cb3e 3776 7ebf
00000020: 2685 80be 9e65 03bf 5785 a3bf 2a05 06bf
00000030: 1b9d 8bbd 01f6 f93e 8a98 82bf 8019 a7bf
00000040: 6da8 cd3e d294 d73f f0fc a2be b40c 3abf
00000050: 17de 8a3e b651 39bf 8e72 3abf 111d 6dbf
00000060: f5bd b13f 8074 5fbf 89bb d5be 8a58 073e
00000070: ec03 03bf 939f 9f3d 3931 75be 8e40 89be
00000080: 5caf b2bf 76c3 3fbf 365c 7b3d c701 96bf
00000090: 1245 493f 5405 8d3f ff1e b93e b5ce d33f
000000a0: 3c3c 3cbf f5a7 24bf 3f92 443e 5827 413f
000000b0: b25b d53e 411b 8b3f 1cd1 a93f 89ec 033f
-0.35731715 1.110262 1.0814536 0.3535011 1.1508573 -1.1277168 0.39788622 -0.9939913
-0.25101584 -0.5132693 -1.2775067 -0.5235163 -0.06817075 0.488205 -1.0202801 -1.3054657
0.4016756 1.6842291 -0.318336 -0.72675633 0.27122566 -0.72390306 -0.72831047 -0.92622477
1.3886095 -0.8728714 -0.4174464 0.13217369 -0.5117786 0.07794108 -0.23944558 -0.26807064
-1.3959765 -0.74907625 0.061367236 -1.1719292 0.7862102 1.1017251 0.3615646 1.6547457
-0.7352941 -0.6431878 0.19196413 0.7545066 0.4167152 1.0867692 1.326694 0.515328

encoder.blocks.0.attention.qkv_projection.weight f4 [144, 48]
00000000: 3fe7 25be 6947 33bd 17ec cabc c782 943e
00000010: 8556 133e ce77 d33d 645d a83d 7fcc 123d
00000020: 82e4 bf3d 7907 823d 95be 033d d796 3bbe
00000030: e7a7 08bb 97cc be3c b35f 22be 0163 27bd
00000040: 264d b2bd f54e 21be 3e43 b03d 2e63 4abe
00000050: 2846 09be 5793 293e cebc 143d c0a1 3c3e
00000060: 671d 3bbe ad55 29be 9662 c73a 5fe0 0a3e
00000070: 144e d03b 0c91 283e fe7d babd 6fa4 1b3e
00000080: e51a 28be 1b0b 093e 0dde a0bd 8cee 853e
00000090: 62cc c43d ffca f23d 8e0d 0cbd 9733 92bd
000000a0: 5b76 80bd 41ad 06be 02ef 8cbd d83f 543d
000000b0: 3f63 123e 41df 2dbe 5ecf 18be 0e39 efbd
000000c0: 90b0 623e a5cf ba3d dff7 aa3d 04d6 12be
000000d0: 26a0 6cbe eac1 f6bd 4243 bdbd 19b1 19be
000000e0: 202d fbbd d9ea acbd 8b8e b8bd fa0a 383e
000000f0: 72f0 d23c 1fef c3bd e26d e13d c213 163d
00000100: 1b93 1c3e e24b 4d3e a96e a7bd 4a9a 293e
00000110: 3262 ff3d f49e bbbd de55 97bd 0e6f e7bd
00000120: 4b16 333e 1c52 213e bc58 94bd 040a f9bd
00000130: a0ed 6d3c 56ba 0cbe fb35 8b3d 3a87 0bbe
00000140: f1d7 c73c 34ec f5bd a624 f93d 4e19 0abe
00000150: 1a99 26bd 1237 a3bd 44ce 183e 43c3 97bc
00000160: f787 603d 9821 733e 8d09 0f3d e440 fdbd
00000170: 6d19 e5bd f048 0e3e e144 133e bff0 063e
00000180: 5f32 ca3d 8707 823c 1fd1 87bc b1b9 9dbe
00000190: e658 f8bd d902 00be 7d94 8dbd 6de8 92bb
000001a0: a34d fcbd 721a d4bc dd46 2abd 1818 213e
000001b0: a40a a63c fcc8 a33c 69c0 2c3e 118d 1a3d
000001c0: a066 0abd b1d2 e63d 9aa2 efbd 5cb1 fc3d
000001d0: 648e 0a3e a2e5 47be 59ff 6f3b 3245 d5bd
000001e0: 8a2b 283e ee20 2d3e db60 56bd 1943 fabd
000001f0: b466 483d 090d 00be 7962 ae3d 37de fabd
00000200: 38f3 113e 540b 1abe ab9b d93d 04dc 2ebe
00000210: 7b32 50be c6be bdbd 7993 5d3d a729 8f3c
00000220: 9c24 8e3d 418a 203e 149d 57bd 0d39 b6bc
00000230: 3a4c f4bd a724 043e f32f 413e 0016 b73d
00000240: 2686 e53d ac96 02bd 15ca 05bd c7b3 953d
00000250: f60c de3c 7cfb f73d 8f9f 243d ab31 4abd
00000260: 3813 dc3d b89e e73c 0e8f 813d 84ec fcbd
00000270: 31c1 803d 1a94 253c 4e3a 86bd 50fa 54bd
00000280: b120 7bbd 1081 b4bd 1eb8 bc3d 6c82 86ba
00000290: 1921 e8bd 741a ef3d 3f3b c13c 7e0c 8c3d
000002a0: 08b2 babd ee25 0ebe 3179 a73d 4d98 883d
000002b0: d4fb be3d 891e fd3d 3519 c5ba 3464 e63d
000002c0: 9bc4 e7bd 3f5e e53d a112 a3bd 665e cd3d
000002d0: 94e3 213e 6d72 163e d2b6 67bd 5ff3 4cbe
000002e0: 85be 8dbd 4d1e aabc 19a1 93bc a2a4 0cbd
000002f0: 9d23 173d b0e9 27be 2506 c9bd db97 33be
00000300: 51d8 0bbe caad 143c 9333 1bbd 1c6c ba3e
00000310: 7c25 a13d c5aa 0c3e 7e77 273d 2c52 2c3d
00000320: 6e50 5a3d bf55 583d fab7 993c 769d 14be
00000330: b502 123d 6aab a4bb b92e 0abe 0bbe 13bd
00000340: 1e2f 93bb 0685 d9bd b1c9 f03d 92ce 2fbe
00000350: 1b3f 04be fa52 413e c3ba 7cbb 7409 053e
00000360: d983 0fbe 5dab 1fbe f28b 703c 9747 893d
00000370: 56f3 8bbd 1e46 053e 16e6 05be 4118 e13d
00000380: e3af 32be 48a8 133e 88ce cdbd a31f 593e
00000390: 5fba 1f3e c58c a53d e017 e1bc 183d ad3c
000003a0: a3f0 23be 5414 34be 197f 4d3d c0a5 a23d
000003b0: 53d3 b63d 3147 2ebe b7a6 03be 56d8 1fbe
000003c0: 66a2 863c 56e8 143d 7abb d4bd 3033 0cbe
000003d0: 7884 cdbc 398e fbbd 8761 91bc 1c41 823d
000003e0: fe67 aebd 1297 febc e2be 93bd a782 113e
000003f0: 2fd2 7ebd c894 97bc 7f91 cd3d d36d 0f3d
-0.16201495 -0.043769274 -0.02477078 0.29006025 0.14388473 0.10325585 0.08220938 0.035839554
0.09369756 0.063490815 0.032164175 -0.1831926 -0.002085203 0.023290915 -0.15856819 -0.0408659
-0.08706121 -0.15752776 0.086065754 -0.19764397 -0.13405669 0.16560112 0.03631287 0.18421078
-0.18272935 -0.16536589 0.0015211876 0.13562153 0.006356964 0.16461581 -0.09106062 0.15199445
-0.1641651 0.13383143 -0.07854853 0.2615856 0.096092954 0.11855125 -0.034192614 -0.07138746
-0.062725745 -0.13152029 -0.068815246 0.0518187 0.14295672 -0.16979696 -0.14922854 -0.11680804
0.22137666 0.09121636 0.08348059 -0.14339453 -0.23107967 -0.12048705 -0.09241344 -0.15008964
-0.12264466 -0.08443231 -0.09011563 0.17972937 0.025749419 -0.09567093 0.110072866 0.036639936
0.15290491 0.20048478 -0.081754036 0.16562763 0.12469901 -0.09161177 -0.07389425 -0.11300479
0.17488973 0.15753978 -0.07243487 -0.121601135 0.014521986 -0.13742957 0.06797405 -0.13625804
0.024394961 -0.12007943 0.12165193 -0.13486215 -0.040673353 -0.07969488 0.14922434 -0.018525725
0.054817166 0.23743284 0.034921218 -0.123658925 -0.1118649 0.13895011 0.14381744 0.13177775
0.09872889 0.01587273 -0.016579209 -0.30805734 -0.12126331 -0.12501086 -0.069130875 -0.0044832737
-0.123194955 -0.025891516 -0.041571487 0.15731847 0.020268746 0.019993298 0.16870274 0.037732188
-0.033789277 0.11270655 -0.11700936 0.12338516 0.1353088 -0.19521192 0.0036620705 -0.104135886
0.16422859 0.16907093 -0.052338462 -0.12219829 0.04892607 -0.12504973 0.08514876 -0.12249415
0.14252937 -0.15043384 0.106253944 -0.17076117 -0.20331757 -0.09264903 0.05409572 0.017475916
0.069405764 0.1567774 -0.052640036 -0.022244 -0.119286016 0.12904607 0.18865947 0.08939743
0.112072274 -0.031881973 -0.032663424 0.073096804 0.02710579 0.12108514 0.04019123 -0.049363773
0.10745853 0.028273925 0.06326114 -0.12349799 0.06286848 0.010106111 -0.065540895 -0.05199653
-0.061310474 -0.08813679 0.09214805 -0.0010262257 -0.11334438 0.116749674 0.023587821 0.0683832
-0.09115988 -0.13881657 0.08177412 0.06669674 0.09325376 0.1235934 -0.001503742 0.11249581
-0.113167964 0.11199617 -0.079625376 0.10027771 0.1580947 0.14692087 -0.056570835 -0.20014714
-0.06921104 -0.020766402 -0.018021153 -0.034336694 0.036899198 -0.16397738 -0.09815625 -0.17538397
-0.13656737 0.009074638 -0.037890982 0.36410606 0.07868478 0.13737018 0.04088544 0.042070553
0.05329936 0.05281615 0.018764485 -0.14513192 0.035647113 -0.005025317 -0.13494386 -0.03606991
-0.004491701 -0.10621075 0.117572196 -0.17168644 -0.12914698 0.1887931 -0.0038563467 0.12991887
-0.1401514 -0.15592714 0.014681803 0.06703108 -0.06833522 0.13015029 -0.13076052 0.10990954
-0.17449908 0.14419663 -0.10049158 0.21203475 0.15598439 0.0808349 -0.027477205 0.021147296
-0.16009764 -0.1758588 0.050170038 0.079417706 0.08927026 -0.17019345 -0.12856565 -0.1560987
0.01643486 0.036354385 -0.10387321 -0.13691401 -0.02508758 -0.12282986 -0.0177467 0.06360075
-0.08515929 -0.031077895 -0.072141424 0.14209996 -0.062212165 -0.018503562 0.10037517 0.035016846

encoder.blocks.0.attention.qkv_projection.bias f4 [144]
00000000: b317 1abe d602 243e 26f2 0a3e b1d4 0abe
00000010: f0d7 0dbe 48e8 143e a314 0abe b399 28be
00000020: bc2e 00be 1c59 153e 3944 0bbe afca 0c3e
00000030: 4751 093e 45a3 533e 22a6 f63d e196 21be
00000040: 8f39 f33d e0e8 473e f2d5 38be 3fed f33d
00000050: 9ccf 34be 92af 0e3e a221 383e d993 17be
00000060: 404e ddbd acad d8bd 5157 02be 6e53 3fbe
00000070: 9990 e43d 2fdc da3d 8bae f43d ebbe b4bd
00000080: 4469 c9bd 5a71 debd 9897 f3bd 24b9 e7bd
00000090: 9d1e 0c3e d17f fb3d 504b 1cbe 778f 40be
000000a0: b6cd 003e bdc1 1c3e 3d40 583e 2a02 0bbe
000000b0: 0be3 453e b738 663e de76 2ebe c4a9 543e
000000c0: 87c7 b9b8 9175 ed38 f91f f238 e341 ac38
000000d0: 3258 feb8 0385 02b8 5927 b8b8 2891 9eb8
000000e0: f731 09b9 2d8e f438 bec1 dcb8 ca52 ed38
000000f0: fb7e 4938 c536 6db7 8a67 6b37 0fd8 9e37
00000100: 780a 1db6 b000 b637 b5c8 5238 9cb3 2d38
00000110: 5aac 2bb8 2f2b a237 c93e 87b6 bd85 5137
00000120: 0d62 8538 209c e737 cae2 6e37 be24 9c37
00000130: d4b9 69b7 4954 1bb8 afba 44b8 87c3 81b7
00000140: 997e ecb7 7d43 99b6 f414 2838 698d 3338
00000150: e4bb 0cb8 0770 d2b8 4e4f b4b8 f926 4eb7
00000160: 4c06 8d36 8c83 cd37 8203 a038 13b9 0338
00000170: 2c8b 9f37 0885 2c38 92ea 31b8 17be feb7
00000180: eaa9 77ba c8b2 2bbc 126a f7bc 258e 9a3c
00000190: 5305 7b3c ff24 c73c 96ad c83b b3e7 28bc
000001a0: 72da d9bb 5460 e03b 3815 07bd 4f39 7437
000001b0: 7adb e0bc d0a3 8cbc c5b9 093c 2ca7 7abc
000001c0: 3886 efbb 262e bb3b 70a1 513c 7c6e 42bb
000001d0: d4e8 773c 1acb bfbb 959c c33b 3f79 86ba
000001e0: 5753 40bc a9a4 093c 9064 1a3b 4400 2f3c
000001f0: aa1c 9d3c 53b1 9cba c2f1 173c f579 413c
00000200: 0759 663c d1f0 94bc cb63 3e3c 8d1c b1bb
00000210: 3c3f babb 46a8 e7bc 7ddf 29ba 098f 733c
00000220: b2c5 1dbb 2890 733b e041 6b3b 62f8 59bc
00000230: 83a2 35bc 64be d63b a97d 963c cee4 433b
-0.15048103 0.16016707 0.13568935 -0.13557698 -0.13851905 0.14541733 -0.13484435 -0.16464882
-0.12517828 0.14584774 -0.13600244 0.13749193 0.13409911 0.20667751 0.12043406 -0.15780212
0.11876213 0.19522429 -0.18050364 0.119104855 -0.17657322 0.13934162 0.1798158 -0.14802493
-0.10805941 -0.1058 -0.12728621 -0.1868417 0.11160392 0.10686528 0.11947354 -0.08825477
-0.09834531 -0.10861464 -0.118941486 -0.1131461 0.13683553 0.122802384 -0.15263104 -0.18804727
0.12578472 0.1530828 0.21118255 -0.13575044 0.19324891 0.22482572 -0.17037532 0.20767885
-8.858652e-05 0.00011322939 0.000115454146 8.2138715e-05 -0.000121280915 -3.1118292e-05 -8.781133e-05 -7.5610646e-05
-0.00013083951 0.00011661309 -0.00010526505 0.00011316461 4.8040394e-05 -1.4139053e-05 1.4031199e-05 1.8935678e-05
-2.3400917e-06 2.169641e-05 5.0254825e-05 4.141369e-05 -4.0930092e-05 1.9332014e-05 -4.0306227e-06 1.2488509e-05
6.3601976e-05 2.7610047e-05 1.4238709e-05 1.8613759e-05 -1.3931149e-05 -3.7033376e-05 -4.6903904e-05 -1.5469048e-05
-2.8192344e-05 -4.567612e-06 4.0073835e-05 4.2808624e-05 -3.3553588e-05 -0.00010034447 -8.5978405e-05 -1.2287631e-05
4.2028605e-06 2.449916e-05 7.630048e-05 3.1405198e-05 1.9019084e-05 4.113189e-05 -4.241855e-05 -3.0367677e-05
-0.00094476214 -0.0104796365 -0.030201945 0.018866608 0.015321094 0.024309633 0.0061242087 -0.010309148
-0.006648355 0.0068474207 -0.03297922 1.45568765e-05 -0.027448405 -0.017167956 0.008406107 -0.015298646
-0.0073097013 0.0057122884 0.012794837 -0.0029667905 0.015131194 -0.005853069 0.0059695938 -0.0010259523
-0.01173862 0.008401074 0.0023558475 0.010681216 0.019178707 -0.0011954702 0.009273948 0.011808862
0.014059312 -0.018181236 0.011620472 -0.005405015 -0.0056838077 -0.028278481 -0.0006480141 0.014865645
-0.0024074134 0.0037164781 0.003589742 -0.013303848 -0.011086109 0.006553458 0.018370466 0.0029891017

encoder.blocks.0.attention.output_projection.weight f4 [48, 48]
00000000: b9b0 6c3c d944 c7bc 0b27 a4b9 5a73 1b3c
00000010: dfd5 553d 2c0c 0bbc ebca 483d 4f09 23bc
00000020: 1125 803c 630f 88bb 2f5e 293d d325 b7bc
00000030: 571a 61bd 0ce9 adbc 1f45 88bc 93cc 3d3c
00000040: 074b fa3c e77e 88bb b361 163d 9ce2 523c
00000050: 5c48 08bd 4f64 1cba 31d6 d73c 9572 403a
00000060: 690e 743c ed9b 14bd f3dd cbbc b6e6 21bd
00000070: c50a 923c 5ac3 6fbc c573 16bd 1787 8abb
00000080: 8320 82bc 1c0e 82bc 3f94 10bd 8422 91bd
00000090: 40bd b239 f85d 96bd 90b6 8dbb 707c 413d
000000a0: f855 1dbb 7a17 90b9 0784 34bc 554b 553c
000000b0: 5fc4 1c3c 9abb c6bc f0c4 583d 46cb dc3b
000000c0: 1a55 0e3d 6ea9 a7bb 7e3c 48bc c2f5 65bc
000000d0: fff2 c43b 0420 213d 9920 21bd dec8 71bc
000000e0: b957 423d c39c 02bc e588 fe3a 7231 383c
000000f0: 106f bd3b f803 013d 6541 143d 5fca e1bb
00000100: 3c07 56bd 6244 373d 3176 c63c 9715 6e3d
00000110: 1af5 8d3c 477b 493b df81 e83a e02d 4abc
00000120: f714 7c3c d87f a2bc ff7b 463d af20 763c
00000130: 930e dfbc 20ac cd3b c9ec 003c 83cd ce3c
00000140: 7def 2e3d 301f 9e3c 11dc 48ba 7ab3 3fbc
00000150: 29ea 1abd ba15 b53c ff86 e63c b901 ff3c
00000160: 54e2 96b9 066b 3bbc 5b0e 113d eda5 1ebc
00000170: 49e0 34bd a2f3 b6bb 4a3e e1bb 0b10 3ebd
00000180: 9450 08bd 83a0 edbc d135 0ebc d527 c43d
00000190: 8fac 23bb bbc1 c43b 9fbb 57ba 840c f0bc
000001a0: a761 e0bc 3635 6c3d 614f 313a ff46 343c
000001b0: 87e4 e6bc fb30 623c acc1 133d 4c86 d639
000001c0: 4aa1 37bd d58c 1f3d a96a 873c 9986 99bc
000001d0: 1973 453c 7eda 63bc 6b4b af3c e13d 333c
000001e0: f884 4c3d ec7a a93c 953c e03d 956a 8a3c
000001f0: 6832 9a3c a077 76bc 80f7 033b 26c7 873c
00000200: a27b 99bb 4cdb 29bd 4453 5d3b ead4 4dbd
00000210: f588 91bd 37cb 2cbc 4c4e 803d a606 1f3d
00000220: a7b8 033d 7b42 20bc 81b3 a03c 48b2 e23a
00000230: c7d0 ab3a 75b2 1b3d 7e32 df3c 1238 cf3c
00000240: c09a 7b3d 34e0 dfba 997c c2ba 45aa d8bb
00000250: 68aa eaba 218a a93c 45c4 44bc cb29 07bd
00000260: 64ed 06bd 1096 213d 7c22 6cbd 2048 82bd
00000270: b23c 3dbc 4cce 87bc 7a46 5c3c c200 123c
00000280: ed18 24bd 5b0e 693c a24a 8d3c f493 14bc
00000290: 2ada 113d 3f54 ddbb 8833 84bd 8420 3dbc
000002a0: 803a dc3d 2c76 c5bc b633 87bc 2bb8 b8bc
000002b0: 2047 5a3d 9543 103d 9d9f f6bc 03f7 953d
000002c0: 6850 d63d 246b 3f3d 8f7c 4fbd b5ec 8a3d
000002d0: 35cc 41bd 3e37 82bc 95c2 99bb 91d7 643d
000002e0: a490 afbc f568 343c 0cee f9bb 5fe1 42bc
000002f0: 2aab 103d e18e 3cbd a98f bd3c 336e be3c
00000300: 1a2b 95bc a947 5a3c 4ab5 553d cef6 ccbc
00000310: 5b85 1c3c a77e d8bd 9a34 fdbc dcf0 c3bc
00000320: 6555 3e3d 0ec4 83bd 402b 3b3d 1d87 633d
00000330: 1daf 153c 113b 0dbb 3dee 1e3b c732 a33d
00000340: 5d64 22bd 875a d4bb 8b5b 293c 02a9 e83c
00000350: 6c50 363d 75f6 a93d 9e89 b4bc 383e a63d
00000360: c283 76bc 4258 793d 42c0 a03c fb9c 4fbd
00000370: 5ec4 383d 73e1 95bc 1c6e 70bd b77e d8bc
00000380: 4b6e 8cbd 1ca9 253d 63a3 6abc 8430 283c
00000390: d158 ad3b eb8d 3bbc ea41 5e3d 177d 1fbd
000003a0: f030 d13d 467f 31bc fdfc a0bc ee8b 2b3d
000003b0: 4fbf 6d3c 199c 553c cfda 55bb bf5f ecbc
000003c0: 8065 cb3b b401 2c3c 4b48 af3c f69e 89bc
000003d0: f1ef dfbc 5f24 c1bc 09c5 99bc 2287 063d
000003e0: 7885 f7bc 156a 723c 5fd7 353b 94f3 993c
000003f0: c2bf 333d 39d7 603d ee68 d6bc b1ea 313c
0.014446431 -0.024324821 -0.00031309607 0.009487951 0.052205916 -0.008486789 0.049021643 -0.00995095
0.015642675 -0.004152225 0.041349586 -0.022356903 -0.05495676 -0.02122929 -0.016634522 0.011584419
0.030553354 -0.0041655186 0.036714267 0.012871411 -0.033272132 -0.0005965875 0.026347252 0.0007341293
0.014896014 -0.036281515 -0.024886107 -0.039526664 0.017827401 -0.014633978 -0.0367315 -0.0042275297
-0.015884643 -0.015875868 -0.03529763 -0.070866615 0.00034091808 -0.07342142 -0.0043247417 0.047237813
-0.002400754 -0.00027483312 -0.011017806 0.013018449 0.009568303 -0.024259377 0.05292219 0.0067380993
0.034749128 -0.005116633 -0.012221454 -0.014035644 0.0060104127 0.039337173 -0.03933773 -0.014757363
0.04744694 -0.007971945 0.001941946 0.011242257 0.005781062 0.031497926 0.036195178 -0.0068905796
-0.052252993 0.04474295 0.02422628 0.05812606 0.017328788 0.0030743645 0.00177389 -0.012340039
0.015385858 -0.019836351 0.048458096 0.015022441 -0.02722863 0.0062766224 0.007868954 0.02524448
0.042708863 0.01930198 -0.0007662187 -0.011700505 -0.03782097 0.022105087 0.028140543 0.031128751
-0.00028778857 -0.011439091 0.03541408 -0.0096831145 -0.044159207 -0.0055832425 -0.0068738805 -0.04640202
-0.03327997 -0.029007202 -0.008679823 0.0957791 -0.002497468 0.00600454 -0.0008229557 -0.029302843
-0.027390314 0.057667933 0.00067638425 0.011003255 -0.028185142 0.013805623 0.03607337 0.0004091732
-0.04483155 0.038952667 0.016530352 -0.018740939 0.012051367 -0.013907073 0.021398267 0.010940046
0.049931496 0.020688497 0.10949055 0.016896525 0.018822864 -0.015043169 0.0020136535 0.016574454
-0.0046839276 -0.041468903 0.0033771554 -0.05025188 -0.071062006 -0.010546497 0.06264934 0.0388247
0.03215852 -0.009781475 0.019616844 0.0017295564 0.0013108485 0.038011987 0.027245756 0.025295291
0.061426878 -0.0017080368 -0.0014838158 -0.0066120946 -0.0017903568 0.020695748 -0.012009685 -0.03299884
-0.032941237 0.03944975 -0.057650074 -0.06361413 -0.011550115 -0.016577862 0.013444537 0.0089113135
-0.040062834 0.014224614 0.017247502 -0.009068478 0.035608448 -0.0067544277 -0.06455141 -0.011543397
0.107533455 -0.0241042 -0.01650415 -0.022548756 0.053290486 0.0352207 -0.030105406 0.07322504
0.10464555 0.046733037 -0.050655898 0.067834295 -0.047313888 -0.015895482 -0.0046923854 0.055869643
-0.021431275 0.011011352 -0.0076272544 -0.011894553 0.035319485 -0.046034697 0.023139792 0.023245906
-0.018209029 0.013322749 0.052174844 -0.02502003 0.009553279 -0.10571032 -0.030908871 -0.023918562
0.046468157 -0.06433879 0.045695543 0.055548776 0.009135989 -0.00215501 0.0024250888 0.079686694
-0.039646495 -0.0064805183 0.010336767 0.028400902 0.04451029 0.08298961 -0.022038277 0.08117336
-0.015046062 0.060875185 0.019622926 -0.050686818 0.045109145 -0.01829598 -0.05869876 -0.02642761
-0.06856974 0.04044448 -0.014321181 0.010265473 0.0052901288 -0.01144741 0.05426208 -0.038937654
0.10214412 -0.010833567 -0.019651884 0.041881494 0.014510944 0.013037705 -0.003263164 -0.028854249
0.006207168 0.010498453 0.021396777 -0.016799431 -0.027336093 -0.023576913 -0.018770711 0.032843716
-0.03021501 0.0147958 0.002774678 0.018792905 0.043884046 0.054892752 -0.026173081 0.010859177

encoder.blocks.0.attention.output_projection.bias f4 [48]
00000000: 25e6 4f3c 59d5 11bc 0934 0a3d 117e a53b
00000010: 558e 9dbd abee 54bc 43b9 be3b 8f46 083d
00000020: e3d5 87bc 8114 f73b 535c c23c 39bb 083d
00000030: 455b 5ebd d150 513c 63fa 463b 0d6b 0abd
00000040: fdac f63c 9a0a e9bc 803e ef3c fd2c 343d
00000050: eda7 803d 53d3 bcbc d42e 84bc 70dc 08bd
00000060: 03fe a136 4263 983d 8c11 b6bc bcd0 61bd
00000070: 3099 55bc 2b87 afbc 1ab1 853d 6883 d83c
00000080: 41e3 49ba d400 533b 0138 adba 52f3 593b
00000090: 925f dd3c f330 8fbd 420d db3c 81e0 ccbc
000000a0: 076c 993b 0654 26bb 7f5c 02ba 06fe 933c
000000b0: f12c 493c c8be ad39 93e1 23bd 1600 073e
0.012689148 -0.008900964 0.03374103 0.0050504287 -0.07693163 -0.012996356 0.0058204248 0.033270415
-0.016581481 0.007540286 0.023725664 0.033381674 -0.05428626 0.012775616 0.0030361644 -0.033793498
0.030111784 -0.028447438 0.029204607 0.043988217 0.06282029 -0.023049986 -0.01613561 -0.03341335
4.8277448e-06 0.07440807 -0.022225164 -0.055130705 -0.013037011 -0.021426758 0.0652792 0.026429847
-0.0007701405 0.0032196539 -0.0013215543 0.0033256602 0.02702311 -0.06991758 0.02673972 -0.025009396
0.0046820673 -0.0025379672 -0.00049728894 0.018065464 0.012278781 0.00033139274 -0.040010046 0.13183627

encoder.blocks.0.layernorm_1.weight f4 [48]
00000000: f2b0 b43c 9279 963d c1e1 a53d 0399 123e
00000010: b507 3a3d 75f9 ae3d 58d4 32be 165d 44bd
00000020: 5a31 cf3d a8af 4fbd 80ac 873c 944d 1a3e
00000030: 4e6e 65bd 0c13 6a3e eb89 3e3e 3669 8fbd
00000040: 18b0 b63d 9110 38be 7c2f 4fbd 026b be3d
00000050: 0edb d03d a3a3 5d3e 77d2 26bd d9cf d03d
00000060: 2761 e6bd ba27 403e d424 ab3d 9f2c 243e
00000070: 3346 c03d a3fe 083e b0c6 cb3d 50ac 053e
00000080: f40f 653d 7181 553e f100 3dbd d509 31bd
00000090: 0fdc bdbd b974 033e 4879 343e e16e 4b3e
000000a0: 3a39 903d eea3 04be c41e 043e d538 183e
000000b0: f96d dc3d a35c cfbd 362e acbd 71be cd3d
0.02205703 0.073474064 0.080997 0.14316182 0.045417506 0.08543674 -0.17463815 -0.047940336
0.10116835 -0.05070463 0.016561747 0.15068656 -0.056013398 0.22858828 0.18607299 -0.07002489
0.08920306 -0.1797507 -0.050582394 0.09297754 0.10198031 0.21644454 -0.04072806 0.10195894
-0.11248999 0.18765154 0.08356634 0.16032647 0.093883894 0.13378386 0.09950006 0.13054013
0.055923417 0.20850159 -0.046143476 -0.043222267 -0.092704885 0.12837495 0.1762439 0.19866516
0.07042165 -0.12953159 0.12902361 0.1486543 0.10763163 -0.10125091 -0.084072515 0.100460894

encoder.blocks.0.layernorm_1.bias f4 [48]
00000000: 3e54 42bb b5d2 b6bb 3c13 c3bb 20d2 32bc
00000010: 8454 a7bb a236 16ba 00df d4ba 99a6 9b3a
00000020: 7716 a3bb 6ce7 8abc e5a2 153a b9bd f3bb
00000030: 8f71 233b fa87 a73c 0fe7 ee3b 281d c73b
00000040: c491 6d3a e572 50bc 7c37 f6bb a27b 30ba
00000050: fa6d 003d 802d 63bc 1a05 89bb 90ce d7bb
00000060: ab70 343c f45b 29bb e689 bcba 18da c93b
00000070: d4c3 4c38 ca06 15bc 3f1b c9bb 780c 39bc
00000080: a1d8 e13a 48d3 f3bb acaf 0fbc 78a2 1fbc
00000090: ae66 143b 7672 d13b 2acf 093c 3687 833c
000000a0: b734 a83a e953 0f3c 3efa 95bb d003 493b
000000b0: c428 07ba c825 963a 8ddb b3ba 0e0e c43b
-0.0029652263 -0.0055793175 -0.0059532207 -0.0109143555 -0.0051065106 -0.0005730187 -0.0016240776 0.0011875211
-0.0049770433 -0.016956054 0.0005708172 -0.007438388 0.0024939512 0.02045058 0.007290728 0.0060764737
0.0009062553 -0.0127227055 -0.0075139385 -0.000673229 0.03135488 -0.0138658285 -0.0041815164 -0.0065859035
0.01101319 -0.0025842162 -0.0014384359 0.006160032 4.881977e-05 -0.009095857 -0.006137281 -0.011294477
0.0017230698 -0.007440958 -0.008769911 -0.009743325 0.002264421 0.0063918186 0.008411208 0.016055685
0.0012833093 0.008748033 -0.0045769503 0.0030672438 -0.0005155916 0.0011455351 -0.0013722047 0.0059831208

encoder.blocks.0.mlp.dense_1.weight f4 [192, 48]
00000000: 8533 ed3d 2f0b b63d aded 273d 77d2 b1bd
00000010: 0fcf 7f3d 6da1 9e3d cd03 2f3d 5945 d5bd
00000020: fc27 9a3c e7b6 6d3d c517 bebd 5ac8 ed3d
00000030: 6e65 983d 7109 e43c bbfb f9bc ee71 073d
00000040: bb27 3f3b c77e 2abd 9b2b 14bd fb3a 093d
00000050: 01b6 edbd f656 c13d 80a7 cf3d f6a4 91bd
00000060: 7fea 2ebc 03e0 173d e8f0 18bd 597d dfba
00000070: e05f 2c3d 9523 75bd 0a3e 223d 5d4b c23c
00000080: 4a54 86bd 2d27 133d a882 b83d 0a4f 3bbd
00000090: 2eb5 2ebd a925 9dbd ac06 953d 51f8 bcbd
000000a0: 5560 d03b 3dae 98bc 6e77 2cbd c517 583d
000000b0: 3382 84bd 6572 00bd 0b99 e2bc 5804 793d
000000c0: 9a17 85bd 7915 9ebd cc7d 48bd 3a75 cebc
000000d0: 4e32 0fbd 439f 8d3c 536f 0ebc b1fb 3c3c
000000e0: c28f 723d 5d80 6ebc ec84 7bbd ba61 313d
000000f0: d37e 8d3d d01a b03d 53b0 8a3c 7f58 843d
00000100: 9ebf 9e3d d1c5 8dbd 88af b73c b3d7 da3b
00000110: ac51 153d 8d47 acbd 8d06 b7bd a001 63bc
00000120: 613a ae3b 9345 9d3c 5a40 493b 4286 cf3c
00000130: 9b4c 8abc fad6 0bbc 97ff a1bd 647d b53d
00000140: 4bf0 a9bd a10a 303c d42c 7ebd 2cab 15bd
00000150: b8d3 36bd d34f 313d 2b37 3d3c 96fe 143d
00000160: a352 323b 34ec ad3d e92d 203d 25db 7dbd
00000170: e73b 723d f45f a03d 645a efbc c92d 2c3d
00000180: 9a5a 143b 21af 143e 9207 9c3c 3e87 ee3c
00000190: 787b 523c a45c 93bd fdf7 e8bc c78f fd3b
000001a0: 902f 2f3d ddcb 973a 78ae 32bd 817c 0ebd
000001b0: 367b 963c e834 323d 04ef 743d 5a91 48bd
000001c0: 0ff5 37bd 2c19 533d 1032 d9b7 9053 313b
000001d0: d021 5c3c f535 1d3c 5438 90bd 77aa 8f3c
000001e0: f717 cc3d 925d 0fbd d81e f9bc 9a02 87bd
000001f0: 83b6 a33d 74d2 0dbd 791e 8f3c 0858 933c
00000200: 493d 5dbd 5955 923c c194 a2bd 4844 443b
00000210: 378d 2fbd a3e4 5d3d a650 0dbe 4128 08bc
00000220: b5f4 a2bc f9b9 aa3d d2dd 283e cab4 b2bd
00000230: af86 153c 3c04 293d a0aa 953d 1982 0ebb
00000240: 78b4 a43d b970 57bc 1a30 b4bb a4aa 9c3c
00000250: 4dda dc3c 9452 c7b9 bef7 343d c288 c8bc
00000260: 4578 753c 1f56 34bc fdfa ab3d f043 21bc
00000270: efc9 8b3b 018a a13d 7a01 873d a7c6 623b
00000280: bf26 94bc 2d4a 443d c6eb 7d3d 8f35 d83a
00000290: bbc6 1d3d 6a70 b63d 90a9 8bbc 1795 14ba
000002a0: f404 b43d fa93 59bd 9ca4 9dbd 923a d2bd
000002b0: 5ef0 7bbd e89e 813d b6a8 393d f519 203d
000002c0: 879f 35be 01a9 b33c 6d53 8cbd f887 65bd
000002d0: 0fbf 6b3d b602 853c a87e bebd c034 82bc
000002e0: 048d 04bd 6b82 2dbc f575 213d 82d8 19be
000002f0: b698 323d e4b6 773d fb1c f63c 40fd f8bc
00000300: cf0e 513d 0e0a 1d3a b307 023d 7991 583c
00000310: c64c 683d d317 a93d 70e6 903d f1fb 21bd
00000320: 891e 053d b34f d13c e6aa bc3d 6de7 d03c
00000330: 88db 10bd fd22 65bd 16ec 853d e512 70bd
00000340: fa37 eebc ddca d7bd c47d 54bd 468a 56bd
00000350: 2b6f 2735 3c45 4f3d 601f 5f3d 3175 27bd
00000360: e214 8f3c 01b8 23bd ace1 b33c 9063 113e
00000370: 9d66 573c 3c0d 9b3d 5253 343c 880f 453c
00000380: 6829 e53c 00dd a5bc 2c0f 89bd 112a 69bd
00000390: 730e bc3d e542 6ebc 1a43 b43a 9fed dabc
000003a0: 17d4 a43d ab4e c4bc 9638 9b3d 0ba9 8dbd
000003b0: 16c0 4bbc 0231 b7bc 4d69 0bbc ee6e 67bd
000003c0: 0c1c 7b3d fbc5 9f3d 0b33 7dbd 6d10 283d
000003d0: b44e ed3b d851 9fbd c9f9 69bd f3fc 52bd
000003e0: 2b53 153d eb01 29bb 3ff6 3ebe 3ea7 bf3d
000003f0: 6d77 393d 220b f5bc 6234 49bd 5abc c0bc
0.11582092 0.08888852 0.04099815 -0.08682721 0.062453326 0.07745633 0.042728234 -0.10413618
0.018817894 0.058035757 -0.092818774 0.1161048 0.07441221 0.027836533 -0.030515542 0.033067636
0.0029167968 -0.04162481 -0.036174398 0.033503514 -0.1160698 0.094404146 0.1013937 -0.07111542
-0.010676025 0.03707887 -0.03733912 -0.0017050906 0.04208362 -0.059848387 0.039609946 0.023717577
-0.065590456 0.035926033 0.09009296 -0.045729674 -0.042653255 -0.07673199 0.07276663 -0.0922705
0.00635914 -0.01863777 -0.042106085 0.052757043 -0.06470146 -0.031359095 -0.027660867 0.06079516
-0.06498642 -0.07718939 -0.048948094 -0.025202382 -0.034960084 0.017287856 -0.008693534 0.011534617
0.05921913 -0.014556971 -0.06140606 0.04330609 0.069089554 0.08598864 0.016929781 0.06462192
0.07751392 -0.06922496 0.022422567 0.0066785454 0.03645484 -0.08412085 -0.08936796 -0.013855368
0.005317018 0.019198215 0.0030708523 0.025332574 -0.016882231 -0.008535141 -0.07910078 0.08861807
-0.08297785 0.010744722 -0.06205447 -0.036540195 -0.044635504 0.043289017 0.011548798 0.036375605
0.00272099 0.08492318 0.039106283 -0.06197657 0.05913916 0.078308016 -0.029217906 0.04203585
0.002263701 0.14519931 0.019046579 0.029117223 0.01284682 -0.07195404 -0.028438563 0.007738087
0.04276997 0.0011581142 -0.043623418 -0.034786705 0.018369298 0.043507487 0.059798256 -0.048966743
-0.04491144 0.051537678 -2.5891728e-05 0.0027057864 0.013435796 0.009595384 -0.07041994 0.017537339
0.099655084 -0.035001345 -0.030410215 -0.06592293 0.07993796 -0.034624532 0.017470585 0.017986313
-0.054013524 0.017862963 -0.07938529 0.0029947925 -0.042859282 0.054173123 -0.13800296 -0.0083103785
-0.019892076 0.08336253 0.16490868 -0.08725889 0.009126349 0.041263804 0.07307935 -0.0021745025
0.08042234 -0.013149434 -0.005498898 0.019124337 0.026959563 -0.00038017763 0.044181578 -0.024479274
0.014982288 -0.011006861 0.083974816 -0.009842858 0.0042660157 0.0788765 0.065920785 0.003460327
-0.018084882 0.047922302 0.06199243 0.0016495454 0.038519602 0.0890816 -0.017048627 -0.0005667968
0.08790007 -0.053119637 -0.07697412 -0.10265078 -0.06150853 0.06329137 0.04532691 0.039087255
-0.17736636 0.021931173 -0.0685185 -0.056037873 0.057555255 0.016236644 -0.093015015 -0.015894294
-0.032361045 -0.010590176 0.039419133 -0.15023997 0.043602668 0.060477152 0.030043116 -0.030394197
0.051039513 0.0005990573 0.031745624 0.013218277 0.05671384 0.08256497 0.070752025 -0.03954691
0.032499824 0.025550699 0.09212284 0.025500977 -0.03536561 -0.05594157 0.065391704 -0.05861177
-0.029079426 -0.1053674 -0.051877752 -0.05237796 6.237412e-07 0.050603136 0.05447328 -0.040883247
0.017466012 -0.0399704 0.021958195 0.14198136 0.0131470235 0.07570884 0.011006193 0.012027629
0.027973846 -0.020246983 -0.06692347 -0.056924883 0.091824435 -0.014542316 0.0013752908 -0.026724635
0.080482654 -0.023963293 0.07579152 -0.06917008 -0.012435934 -0.022362236 -0.008508992 -0.056502275
0.061306044 0.07801434 -0.061816256 0.04103129 0.007242048 -0.07779282 -0.05712298 -0.051510762
0.03645627 -0.0025788497 -0.18648623 0.09358071 0.04527991 -0.029912535 -0.04912222 -0.023527313

encoder.blocks.0.mlp.dense_1.bias f4 [192]
00000000: 902f e33c fb5f bbbb 3ae0 9c3b 3b0f f4ba
00000010: 6af7 bcbc 6511 4e3c e723 38bc 3296 0e3c
00000020: 7cc8 963b a269 ad3b ef86 35bc e972 8ebb
00000030: cd05 013c 97c0 1e3a 298d 0f3c 8961 84bc
00000040: ea29 e03b 9cf2 1f3c 5f46 edbc 3e52 7fbc
00000050: ffd4 6d3c a9eb dbb9 ad64 6a3c dc65 cf3b
00000060: 24d3 3fbc e27b 1b3b 4495 82bb 841e 70bc
00000070: f73f 0a3c 451a 09bc 3eb4 a9bb 943c 64bc
00000080: 0d3a f33a 2266 f839 8b52 e73a fb51 b5bb
00000090: 920f bdba e4fc 713b a476 93bc 7c0d adbb
000000a0: 26ab 353b 17ec 943b 2d3b bf3a 022e 66bc
000000b0: 8bef c93b f3c1 be3b 30a7 87ba fe6c 05bc
000000c0: cc6d d33c 0a32 27bc 1e0f 48bc d4ee c6b9
000000d0: 56c5 abbc d1d4 0a3d b115 5e3a 973c 353a
000000e0: e18e e93b 1a5a 9ebc 5a52 613b 2fe9 4abb
000000f0: 511f 41ba 68d9 3fbb b900 d0bc 1132 f4ba
00000100: 9a54 f4bb 0fe4 c9bb 11c4 81ba 1603 6c3a
00000110: 5dc0 1fbb 46f4 953b f53a 0c3b 8cd0 4ebc
00000120: 83b8 5bbc d639 bcbb 1a0e f9bc 9b27 6aba
00000130: ade4 5d3c 6ca4 74bc 186f 973c 74f9 f5ba
00000140: b50c c0ba 0386 fe3b dddb da3b 7699 92bc
00000150: c2d3 cbbc ce08 57bc 94b3 0d3a e488 15bc
00000160: 462a 273b d5ea f53a 151c 8f3a a2b4 2d3c
00000170: 0585 963a ce9f 293c fcfd 45bc 5809 26bc
00000180: d6a5 4f3c 98f8 053c bc77 8f3b 8c7e 7dbc
00000190: d2e4 5bb7 d44d e93a 360b 87bc 6833 ccbc
000001a0: 2aec db3b 0f31 7b3c 7638 213c 25af b3bb
000001b0: f8d5 63bc 9fcd 9bbb b809 2abc 9604 97bb
000001c0: 3137 d5bc fe8f 91bc bfed 4b39 8208 afbb
000001d0: 84dd 8e3b 9504 cdba 350d 8dbc dd04 b63c
000001e0: 352c a6bb d4af 49bc 04af c93c 45bd e63b
000001f0: 7800 c0bb cb24 143c d862 253b c5df 8cbc
00000200: 0839 d8ba 91d0 29bc 7943 b939 46a1 2abc
00000210: 45b5 02bc a798 dbbb b373 a93c afed 14bd
00000220: c0ae 803c 8992 d53a c19c 073c b893 0fbc
00000230: f157 85bb 4e3f 653a d658 48bc 0d9d 5dbc
00000240: b622 8b3b 6756 843b 6592 56bc 4660 caba
00000250: 9ecc 243c ea44 f63a dd4b 90bc 8f88 0fba
00000260: 20c4 92bb d42e a13b ed78 aebc f6fe 25ba
00000270: d3ae 34bb 76c2 533c ae3d 81bb 4a09 18bc
00000280: 9070 f23c b8c1 9ab9 6f90 31bc fdea 2ebb
00000290: ccf5 833c 6d8b 9fbc 4343 043b 20d8 333b
000002a0: ea10 03bc 15e5 94bb 0f94 83bb a836 85ba
000002b0: fd5a 49bc 5ff2 a53b bae1 0a3b b5dc 083b
000002c0: 6b66 3b3c b3e5 0fbc 1c41 f2bc 5558 3bbb
000002d0: b135 8cbb e1f8 af3a 655f 3bbc ff24 953b
000002e0: 8130 54bb 0d5f cbbb 97fa 143c 08e3 8fbc
000002f0: 497a a73b ed47 89bc 0492 3d3b 7e2f 6ebc
0.02773264 -0.005718229 0.004787472 -0.0018620262 -0.023067195 0.012577389 -0.011239029 0.008702802
0.0046015363 0.0052921334 -0.011079534 -0.0043471945 0.007874918 0.000605592 0.008761683 -0.01615979
0.006840934 0.009762432 -0.02896422 -0.015583573 0.014516114 -0.00041946516 0.01430623 0.0063292813
-0.011708055 0.0023724963 -0.003985079 -0.014655713 0.008438102 -0.00836808 -0.0051789572 -0.013930459
0.0018556729 0.0004737834 0.0017648501 -0.0055334545 -0.0014424196 0.0036924416 -0.018000908 -0.0052811485
0.002772042 0.0045447457 0.0014589779 -0.014049055 0.006162589 0.0058214604 -0.0010349508 -0.008143662
0.025809191 -0.010204801 -0.0122106355 -0.00037943444 -0.02096812 0.033894364 0.000847186 0.00069136306
0.007127628 -0.019330073 0.003438136 -0.0030961742 -0.0007367032 -0.0029273871 -0.02539097 -0.0018630644
-0.0074563744 -0.00616122 -0.0009900351 0.00090031454 -0.0024376132 0.004576239 0.0021397446 -0.012622964
-0.01341069 -0.0057441993 -0.030402232 -0.0008932293 0.01354329 -0.014931779 0.01848559 -0.001876636
-0.0014652224 0.0077674403 0.006679042 -0.017895442 -0.024881247 -0.013124658 0.00054054824 -0.009126876
0.0025507375 0.0018762002 0.0010918403 0.010602148 0.0011483735 0.010353042 -0.01208448 -0.010134064
0.012673816 0.008176945 0.004378287 -0.015472066 -1.3106694e-05 0.0017799684 -0.016484838 -0.024926856
0.0067115026 0.015331521 0.0098401215 -0.0054835253 -0.013905995 -0.0047547366 -0.010378294 -0.004608701
-0.026027294 -0.017768856 0.00019448156 -0.0053415904 0.004359903 -0.0015641624 -0.017218212 0.022219116
-0.005071188 -0.012309987 0.024619587 0.0070416057 -0.005859431 0.009041975 0.0025235917 -0.017196545
-0.0016496489 -0.0103646675 0.0003533622 -0.010414427 -0.007977788 -0.006701547 0.020685052 -0.036359485
0.015708327 0.0016294281 0.008277119 -0.008763246 -0.0040693213 0.000874509 -0.012228211 -0.013526213
0.004246081 0.0040386203 -0.013096427 -0.0015440069 0.01005855 0.0018788849 -0.0176143 -0.0005475366
-0.0044789463 0.0049189124 -0.021297896 -0.00063322426 -0.0027570024 0.012924781 -0.0039441204 -0.009279558
0.02959469 -0.000295175 -0.010837658 -0.0026690357 0.016108416 -0.019475663 0.0020181693 0.0027442053
-0.007999638 -0.0045439103 -0.0040154527 -0.0010163384 -0.01228976 0.0050642933 0.0021191672 0.0020883505
0.011437993 -0.008782792 -0.029572062 -0.0028586586 -0.0042788615 0.0013425612 -0.011436318 0.0045515294
-0.0032377543 -0.0062063993 0.009092948 -0.017564312 0.005111013 -0.01675793 0.0028926143 -0.01453769
